…
 magical!).\n\nmodel = make_net(10)\nmodel.summary()\n\nWARNING:tensorflow:From c:\\Users\\Sammi\\Anaconda3\\envs\\ml_sammi\\Lib\\site-packages\\keras\\src\\backend\\common\\global_state.py:82: The name tf.reset_default_graph is deprecated. Please use tf.compat.v1.reset_default_graph instead.\n\n\n\nModel: \"sequential\"\n\n\n\n┏━━━━━━━━━━━━━━━━━━━━━━━━━━━━━━━━━┳━━━━━━━━━━━━━━━━━━━━━━━━┳━━━━━━━━━━━━━━━┓\n┃ Layer (type)                    ┃ Output Shape           ┃       Param # ┃\n┡━━━━━━━━━━━━━━━━━━━━━━━━━━━━━━━━━╇━━━━━━━━━━━━━━━━━━━━━━━━╇━━━━━━━━━━━━━━━┩\n│ dense (Dense)                   │ (None, 128)            │         1,408 │\n├─────────────────────────────────┼────────────────────────┼───────────────┤\n│ dropout (Dropout)               │ (None, 128)            │             0 │\n├─────────────────────────────────┼────────────────────────┼───────────────┤\n│ dense_1 (Dense)                 │ (None, 128)            │        16,512 │\n├─────────────────────────────────┼────────────────────────┼───────────────┤\n│ dropout_1 (Dropout)             │ (None, 128)            │             0 │\n├─────────────────────────────────┼────────────────────────┼───────────────┤\n│ dense_2 (Dense)                 │ (None, 128)            │        16,512 │\n├─────────────────────────────────┼────────────────────────┼───────────────┤\n│ dropout_2 (Dropout)             │ (None, 128)            │             0 │\n├─────────────────────────────────┼────────────────────────┼───────────────┤\n│ dense_3 (Dense)                 │ (None, 1)              │           129 │\n└─────────────────────────────────┴────────────────────────┴───────────────┘\n\n\n\n Total params: 34,561 (135.00 KB)\n\n\n\n Trainable params: 34,561 (135.00 KB)\n\n\n\n Non-trainable params: 0 (0.00 B)",
    "crumbs": [
      "4F - Neural Networks",
      "<span class='chapter-number'>11</span>  <span class='chapter-title'>Neural Networks with Tensorflow/Keras (Titanic Dataset)</span>"
    ]
…
